autoencoder_convolucional.pth (torch, 846354 bytes, 11 tensors)

encoder.0.weight f4 [16, 1, 3, 3]
00000000: 7e05 bc3e cb75 5ebe 6212 0a3c c165 913e
00000010: 72c6 a93e 2d2b bd3e 5575 67be 5c17 b93e
00000020: 5fa6 b53e d0fd a7bd 2438 483e 54a7 b73e
00000030: 3464 d6bc 1ee5 7c3e 7e0b 673d 995b 19bd
00000040: 93d4 eebd f667 a23e eb37 01be 9801 74bd
00000050: d6ac 353e c59b 1ebd 4569 89be 2b40 19be
00000060: 60ca 52bc 19a6 6e3c e86c 9c3e 3cea 263d
00000070: f131 fa3e 634d b83e b765 573f 83e1 693f
00000080: 5f00 153f d776 033f 2e97 193f edff b13d
00000090: 9361 893e 0afa 8f3e 256b 52be 255f 09be
000000a0: 6185 aa3e e0b1 d53e 0583 513d d6f6 df3e
000000b0: 8af7 c53c f983 473e fd28 d93e fe50 8a3e
000000c0: d165 673e fa83 8c3e 72c1 d73e b74a 4dbe
000000d0: 4967 c83e b28f 1abe b1a8 0c3f 0452 7c3e
000000e0: aaa3 afbe 0879 16bc 8eba 5c3e 7e65 b1be
000000f0: fd64 973e 712f 95be cba3 a3be ef46 f5be
00000100: 2ff4 99be 9946 233e 015e f4bc 8c1f 283d
00000110: 5310 dd3e c3ef be3e fb81 943e 98ab ff3b
00000120: f5bc 8dbe 45a0 4c3e 8b12 60be ead9 ce3d
00000130: 9a9b 793e 8f9d f03d 7e7f 923e 1cab b6bd
00000140: 05e1 36be 388d 283e a3d0 5b3f 5f21 133f
00000150: 6551 233f 2538 833f 94fa 043f 25a1 033f
00000160: 0c1e d63e 3d51 a93e 5d85 b93d dd48 b53e
00000170: 19b1 853e cf80 793d 5e45 a9bd 3cb8 0b3e
00000180: da09 473d 1b84 273e ba21 b83e 9222 a7be
00000190: dff1 c23e 9c35 773e 8e10 423e 8984 aa3c
000001a0: 3919 a33e 3418 963e 42eb 2c3e abbb bc3e
000001b0: 1c30 98aa 3dde 19a6 42a9 b3a6 ef74 b5a4
000001c0: 8a62 63a5 c15d a3a6 d10e 50ad 50b5 9da5
000001d0: e9e7 48a8 3e3c 573c 1961 7fbe 09e9 3ebe
000001e0: d332 4abe ee77 10be 0caa 5c3e 33d7 22be
000001f0: f760 99bd c566 143e 8d07 d83d 790d 843e
00000200: 1fd5 99bd d664 92bd 8dbd a13e d708 bc3d
00000210: dfbe 7b3d 08f7 2abd 9ed9 35be a8b4 b63e
00000220: e681 bc3e 6f17 b73e c0d7 e13d f355 223e
00000230: 386b 983e bcec 66be 524a ed3d 1c22 f93b
0.3672294 -0.21724622 0.008427234 0.28397945 0.33159214 0.36947003 -0.22603352 0.36150634
0.35478494 -0.08202708 0.19552666 0.3586985 -0.026170827 0.24696776 0.056407444 -0.03744087
-0.11661639 0.3171994 -0.12618987 -0.059571832 0.17741713 -0.038722772 -0.26838127 -0.14965884
-0.012865633 0.014565968 0.3055184 0.040750727 0.48866227 0.3599654 0.8413958 0.9135973
0.5820369 0.5135321 0.59996307 0.08691392 0.26832256 0.28120452 -0.20548685 -0.13415201
0.33304885 0.4173727 0.05115034 0.43743008 0.024165887 0.19483937 0.42414084 0.27014917
0.22597434 0.2744444 0.42139775 -0.20048033 0.391413 -0.15093878 0.549449 0.24640661
-0.34304553 -0.00918413 0.2155554 -0.34647745 0.29569235 -0.29137757 -0.31960902 -0.4790568
-0.3006911 0.159449 -0.02982998 0.04104571 0.43176517 0.372923 0.29005417 0.007802438
-0.27683225 0.19983013 -0.21882074 0.101001576 0.24375764 0.11748802 0.28612894 -0.08919355
-0.17859276 0.1646012 0.8586523 0.57472795 0.63796073 1.0251509 0.5194485 0.5141776
0.418198 0.33069792 0.0905864 0.35407153 0.26111677 0.060913857 -0.08265184 0.13644499
0.04859338 0.16358988 0.3596323 -0.32643563 0.38075158 0.24141544 0.18951628 0.02081515
0.3185518 0.2931534 0.16886619 0.3686193 -2.7034007e-13 -5.338373e-16 -1.2466498e-15 -7.869433e-17
-1.9722498e-16 -1.1335809e-15 -1.1826721e-11 -2.735802e-16 -1.1152518e-14 0.013136921 -0.24939384 -0.18643583
-0.1974595 -0.1410825 0.21549243 -0.15902404 -0.07489198 0.14492328 0.10548315 0.2579153
-0.07511353 -0.07148139 0.31589928 0.091813736 0.061461326 -0.041739494 -0.17758796 0.35684705
0.36817855 0.35760066 0.11027479 0.158531 0.297693 -0.22551244 0.11586441 0.007602943

encoder.0.bias f4 [16]
00000000: b40a 3c38 4e56 8a3e 00ce 193e 8dee af3c
00000010: a453 1f38 bb2c 583e 76b8 2db9 fd02 3a39
00000020: ffee b53e 9c8f 133d f630 423c 3dd0 3e3a
00000030: 02ea 67a9 85cb 113e 9f42 393e ccc2 ed3b
4.483266e-05 0.2701897 0.15019989 0.021476055 3.798645e-05 0.21110813 -0.00016567283 0.00017739456
0.35533902 0.03602563 0.0118524935 0.0007278955 -5.1495273e-14 0.14237793 0.1809182 0.0072558876

encoder.2.weight f4 [32, 16, 3, 3]
00000000: 5c78 863d 9b80 233d a440 693d c4cd c9bd
00000010: 10a9 fd3d c2b1 5e3e ec0d 15bd 4818 85ba
00000020: 2b71 ac3d 8295 473d 9e15 143d 1cfa 783c
00000030: 5693 a23d c9f8 f43d 42e4 823d 3561 73bd
00000040: dab6 e23c 0b20 103e 62b3 403c af1c 983d
00000050: 9d9a bd3d ec2e a83c 83da 033e 0e55 c43b
00000060: 6b20 3a3d a4c6 303d d15b 9bbc f11a e73d
00000070: 727f e3bd f7b3 4b3e 1f14 b9bd 275d 32bc
00000080: 0c7c 013f df11 90bd 196c f83d 65ea b03e
00000090: bb69 8b3d 80ee aebd 2325 283e 1b44 73bc
000000a0: 399b 073d 50ff 9c3e 1516 47bc 31a4 c93c
000000b0: 985a 473e 8a09 643d 78a0 383d 3b85 623d
000000c0: 4830 51bd 3d6d 17bc 0da8 1e3e c7cf 03bd
000000d0: 030a b73d 12f4 003e 9b9f cf3d 41c5 9fbd
000000e0: 44de 3b3e 88a7 c8bd 178c 01be 61a2 fc3e
000000f0: f201 6ebd 7398 9b3d 03b4 df3e 32d6 a63d
00000100: 65b0 06be 019b 153e 3b56 18be 2cd9 d33d
00000110: e0eb 9d3e d3ef e7bc 8614 833e b9e8 da3d
00000120: 2966 363d aa31 9f3d 5168 3f3c 8b44 3d3c
00000130: 308b 773d 26f3 883d abb3 993d 1056 f43d
00000140: 319f 7e3c 598b 003e ea77 bdbd e27e 463e
00000150: 3a29 93bd 7e3a 413d ffeb f93e 6122 85bd
00000160: 826f 363e b668 c63e f978 783c 2c67 8dbb
00000170: ecd9 a73d 8201 82b9 671d 1f3d b2af 153e
00000180: db7a 9bbd dc56 523c c6a7 073e 1d45 683d
00000190: b25c d5bc 2daf f73d fb24 e9bd 906a 283c
000001a0: 2eb1 873e 72e0 bbbd 45ba de3d 045e 243e
000001b0: 4e1d 28a6 0e41 b5a6 3b59 d9a6 b424 97a4
000001c0: 74f1 09a7 0c7b aea6 6a9e bba6 86a4 55a6
000001d0: 6301 bda6 9726 83bd 61bf 703d 79cd 683d
000001e0: 6288 c73c 02ae a83d dbd8 4dbd edfa 103d
000001f0: 0aa2 1e3d 7dcb b2bd 705a 9b3d 18ba 903d
00000200: 4f1d 6b3d 20be 9e3d 43b0 adbc d5f0 a33d
00000210: 9692 ef3b b7c9 223d ffb4 de3d 55bc c63d
00000220: 9f08 5ebd 7278 8cba 9695 683c 4ded cf3d
00000230: c6ea 493e 7376 95bc 5b17 da3d 5678 803e
00000240: 9f11 fd3c a66e 473d d599 193d 3660 403b
00000250: 14ee e23d 3f42 8abc 06ac 933c 25d8 41bd
00000260: 2e1d 59bd ad25 283c 9bc6 333c 3d49 55bd
00000270: c493 a2bb 2ec5 b53d 89c6 803c a69f 663d
00000280: 5eae 273d 9856 f23c 7880 0e3a 9549 483d
00000290: 198b 833c 5d9b f23c f5c8 05bd 00b9 003b
000002a0: 130f d7bc c43a a63c 9c00 243d 843c 23bd
000002b0: b57c dc3c b1e2 b33b 51e9 d83d 328d f13d
000002c0: d83f a4bc 54bd 603d b8a2 6a3c 5822 25bd
000002d0: 3cf7 6cbb 96ae 193d 0232 043d d8c8 e63d
000002e0: 5faf c83d cb0a 8abd f822 033d 5dda 87bd
000002f0: 9a0e 95bd 9d92 c93b 89d3 24bd 339b 3cbd
00000300: 470a 9a3d 946c b33d b156 223c 539d a23d
00000310: 81d8 ecbc b720 b43d 009c 3ebd c09b 313d
00000320: b478 1a3d d0bb 7b3d 220f 2b3e 4499 993c
00000330: 1cc5 bc3d 2df2 b93d 9df4 bdbc 1533 d5bc
00000340: a996 fc3d 2e63 b83c 917b 973d 9881 553d
00000350: f8b8 bb3c d2d7 9b3d 0228 4abd 1488 09bd
00000360: 3d42 36bd 15d7 d03d 5dd9 863d 4e31 e3bc
00000370: 0c8a cfbc 68a2 ea3c 1590 993d 1fbb 9d3c
00000380: d970 d93c f4f0 debc d4e5 543d 6041 c43c
00000390: 004c db3d 4584 043e 38b7 763d 9b39 f63c
000003a0: 2907 8dbc 3c9b 11bd 38ff fc3c 1ffd 15bc
000003b0: 8457 453d 79f2 123d 820a c83d dea5 373d
000003c0: f854 153c 068e 2fbc dd1a 6bbd 04a3 8bbc
000003d0: 2239 563d a159 15bd f185 d33d 7c14 dd3c
000003e0: 0f58 393d 17af 873d 7ad2 37bd 8ac2 f23c
000003f0: 14c8 5ba6 84ba 59a6 b0df aaa6 c284 7aa6
0.065659255 0.03991757 0.05694641 -0.098537 0.12385762 0.21747497 -0.03639023 -0.0010154331
0.084200226 0.048726566 0.03615343 0.0151963495 0.07938258 0.119615145 0.06391193 -0.059418876
0.027675081 0.14074723 0.011761518 0.07427346 0.09258006 0.020530187 0.12876324 0.0059915846
0.045441072 0.04315819 -0.01896468 0.112844355 -0.11108293 0.1989287 -0.09037041 -0.010886467
0.50579906 -0.07034659 0.12129993 0.3455383 0.06807276 -0.08541584 0.16420417 -0.014847781
0.033107016 0.30663538 -0.012151261 0.024614425 0.19468153 0.05567316 0.04507491 0.05530284
-0.051071435 -0.009242353 0.15493794 -0.032180574 0.089374565 0.12593105 0.10137864 -0.07801295
0.18346506 -0.09797579 -0.12651096 0.49342635 -0.058107324 0.07597437 0.43692026 0.08146323
-0.13153227 0.1460991 -0.14876644 0.103441566 0.3084402 -0.0283126 0.25601596 0.106889196
0.04453102 0.077731445 0.011682586 0.011551986 0.060435474 0.06687002 0.07504972 0.119304776
0.015540884 0.12553157 -0.092513874 0.1938434 -0.07185598 0.047174923 0.48812863 -0.06500698
0.17815974 0.38751763 0.015165561 -0.0043152776 0.08195862 -0.00024796656 0.0388464 0.14617804
-0.07591792 0.012838092 0.13247594 0.056706537 -0.026045177 0.12093959 -0.113840066 0.010279313
0.26502365 -0.09173669 0.10875372 0.16051489 -5.8326424e-16 -1.2577031e-15 -1.5081586e-15 -6.554799e-17
-1.9143461e-15 -1.2107027e-15 -1.301867e-15 -7.412219e-16 -1.3114885e-15 -0.06403845 0.058776263 0.05683658
0.024357025 0.08236314 -0.050255638 0.03539555 0.03872875 -0.087302186 0.07585609 0.070667446
0.057400998 0.07751107 -0.021202212 0.080049194 0.0073111756 0.03974315 0.10874366 0.0970389
-0.05420744 -0.0010717048 0.01419582 0.101526834 0.19718465 -0.018244958 0.10648986 0.2509181
0.030892191 0.048689507 0.03750022 0.0029354221 0.11080566 -0.016877292 0.018026363 -0.047325272
-0.053006344 0.010262889 0.010972644 -0.0520718 -0.0049614627 0.088755 0.015719669 0.056304596
0.040937774 0.029582307 0.00054360135 0.0488983 0.016057538 0.029615099 -0.03266235 0.0019641519
-0.026252305 0.020291694 0.040039644 -0.039852634 0.026914934 0.00548967 0.105913766 0.11794509
-0.020049974 0.054868057 0.014321022 -0.040315956 -0.0036158105 0.037520014 0.032274254 0.11268777
0.097990744 -0.0674034 0.03201577 -0.06633446 -0.07278176 0.006151511 -0.0402408 -0.046046447
0.075214915 0.08760944 0.009908364 0.079401635 -0.02891183 0.08795302 -0.046535492 0.043361425
0.037712768 0.06145841 0.16704991 0.01874984 0.09217283 0.090793945 -0.02318793 -0.026025334
0.12333424 0.02250823 0.07396615 0.052125543 0.022915348 0.07609524 -0.04935456 -0.03357704
-0.044496763 0.10197274 0.065844275 -0.027733471 -0.02533438 0.028641894 0.074981846 0.019254265
0.026543068 -0.027214505 0.051976994 0.023956954 0.10707855 0.12941082 0.060233325 0.030056765
-0.017215328 -0.035548434 0.030883417 -0.009154587 0.048179165 0.03587577 0.09767629 0.044835918
0.009114496 -0.010715013 -0.057398666 -0.017045505 0.05230058 -0.03646243 0.10328282 0.026987307
0.045249995 0.066251926 -0.04487846 0.02963378 -7.6252045e-16 -7.5539775e-16 -1.185675e-15 -8.6916094e-16

encoder.2.bias f4 [32]
00000000: 9506 9f3d d027 9d3d c5b2 7b3d 1f10 bc3d
00000010: 5324 05bd 1882 6e3d a77e 3dbc a234 953d
00000020: 1df9 ce3c 3921 1ebd ed26 70bc 6752 a13d
00000030: e991 34bd 0e0d d23d 6a8d 663d fb25 663d
00000040: a248 dabd 8518 2a3c bb2f c43d 32a5 2bbc
00000050: 66ad e13d a7b0 083d 47f6 b5bd 388c 0d3c
00000060: 2c42 923d da3e 623c e318 093e edee e03d
00000070: 8626 66bb 7626 5abd 48e8 ca3d 5972 313d
0.07764927 0.07673609 0.061449785 0.09182762 -0.032505345 0.058229536 -0.011565841 0.072854295
0.02526527 -0.038605902 -0.014657718 0.07877045 -0.044084463 0.10256396 0.056287207 0.056188565
-0.10658385 0.0103818225 0.09579416 -0.010476397 0.11019401 0.033371594 -0.08884864 0.008639388
0.071415275 0.01380893 0.133884 0.109830715 -0.0035118177 -0.053259335 0.099075854 0.04332194

encoder.4.weight f4 [64, 32, 7, 7]
00000000: 6af0 c2bb 230c d6bb b3dc f5bb 1604 3cbc
00000010: 4f30 9f3b 6602 b7bc 701d c6bb 1810 f4bb
00000020: 3a25 94bc 73ba debb e602 a73d 5a25 60bc
00000030: 16d6 7dbb 00c9 a4bc d24d 55bc 7576 7e3d
00000040: ee86 00be f296 f33d 85f0 31bd 9801 263d
00000050: b2a0 cbbc cbed 09bd 72a8 f23b 10c7 8cbd
00000060: 7586 913d ef20 98bd 54fc 653d f411 6cbc
00000070: ae21 85bc e21f 903d cf3b e7bd 8665 9f3d
00000080: 6b95 83bd 42c1 da3c 373d d9bc 0d18 d0bc
00000090: 6c35 3ebc 6e06 3bbd 43fb a73d a01c a6bd
000000a0: 6281 fcbc d962 cabb a05d 1abc 8c09 db37
000000b0: b0fa f0bc c2ca 2a3d c0fe 9b3c 2f56 a2ba
000000c0: 6906 4ebc 67b9 43bb f6b1 afbb 0011 9fbb
000000d0: fbf4 92bb fd82 d3bb c51a 3bbb 1f10 d0bb
000000e0: 019c 81bb b7d6 8abb e0e6 3dbc 17cd 95bc
000000f0: a261 df3c c5eb b3bc 2446 d4bb 72db 56bb
00000100: 40a9 e3ba 0ce4 013d 4b07 5cbc c7de 7bbc
00000110: 9764 1d3c aee9 933b 5645 bcbb 418e 73bc
00000120: 1e22 7fbb d603 42bc 3d24 5f3b 444e a1bc
00000130: a7bc a7bb 6dc9 6bbb 5c0b cdbb 4c23 a33b
00000140: 7c08 9cbb 3502 2d3a 26f3 123c 8a37 1f39
00000150: c8e9 8dbb f4dc 88bb 876f a6bc 676a eebc
00000160: 19ac 36bb 9474 7bbc 0426 a1bc 0229 65bb
00000170: 6d1b 87bb f1f0 cdbc 8d05 bbbb dafe 7fbc
00000180: 0dff 1f3c e2bd 24ba 7a73 8cbb 15b1 b3bb
00000190: 08f4 aebb 0f88 ffbb f928 7eb9 7f0f 32bc
000001a0: 85f4 ecbb 2ec2 bbbb aded 46bc 7945 c0bb
000001b0: 7a0c 1e3c 7f1c 50bb 2abd c1bb 9a85 97bb
000001c0: fa49 14bc 4533 b03b 91d7 36bd ef9e 073c
000001d0: 18fc ffbc 7349 0cbc e133 a2bc 7bc2 37bc
000001e0: 6c9c cfbb 3a1c acbc 4dcd 033d 6ce1 44bd
000001f0: b33c e039 bc3d 7838 5fb1 0dbc 5e76 633c
00000200: 5da0 acbc afc9 abbc b66d 31bd a799 b83c
00000210: b4ee 6dbc e4c0 17bc 79da 00bc a8f1 f7bc
00000220: f84f 2dbc 0100 e63a dfc3 3cbc 4b31 26bc
00000230: dc7f febb 7c13 17bc b5d8 6bbc ae1b 943c
00000240: e115 4dbc 6269 42bb 63cd febb 6257 67bb
00000250: 861a 72bb 83f6 84bb 8759 80bb 9970 42bb
00000260: 3f2f 9ebb c217 35bb efe4 9ebb efbb f1bb
00000270: d2ba 12bc c92f 45bc 35c4 233c 4bd6 a3bc
00000280: 3116 8cbc fe9e 89bb 4760 6c3b c5d8 47bb
00000290: bcf5 7b3b 5e7b ddbc d4a8 2a3a aadc 303c
000002a0: 1b5c 05bc 57ce 4abc 551f f33b 4000 67bd
000002b0: c624 083c 5a5e f0bb 0515 0fbc 6f80 98bb
000002c0: 1f67 58bb 5628 90bc 2624 a3bc de1c a53c
000002d0: 7a7e 51bc cf7f e1bb 11e1 d6bb 72d0 a3bb
000002e0: 5776 b8bb ffe3 11bb 2324 36bd 1c3f 96bb
000002f0: ebe4 62bc b394 a3bb 324d 1fbc f033 0cbd
00000300: 1857 5fbc 37aa adbc 1af2 e9bb cf45 b7bb
00000310: 24b4 f1ba c418 76bb e427 86bb 4a8b a3bb
00000320: 051c 3bba 7ec1 89bb 78e0 dbbb 529a 47bb
00000330: c40d dbbb d1da 32bc fcf6 62bb ad48 8c3c
00000340: 258d d9bb 43a2 eb3a 3511 45bb 4026 c8ba
00000350: 7ae8 dc3b 52ae 29bd 63d4 a93a eca5 09bb
00000360: 8c2c 293b c79d 86bb e3b4 83bc 9c64 dcbb
00000370: 4132 6ebc 6581 53bc dba6 2cbc b208 c7bb
00000380: 74ba 36bb 977a afbb 493e 1c3c e58e f3bc
00000390: a494 a8bb dcf9 74ba b378 96bb 9b84 5fbb
000003a0: ccab 4fbc 6c7e adbc 4e65 d3bc 47bc 85bc
000003b0: 13ae 0bbc 0e8d 84bc d57a 39bb ee38 0ebc
000003c0: 46bc b6bc ed35 25bc 2322 8ebc e226 d53b
000003d0: 6067 30bb e71e b2bb 5ccf c9bb 02cb cbbb
000003e0: f02d 8dbb b879 c7bb 63d2 dfbb b7e8 88bb
000003f0: d357 d0bb c306 2abc f55b 68bc 7aa5 b8ba
-0.0059490697 -0.0065322085 -0.007503116 -0.011475584 0.0048580538 -0.02234001 -0.0060459897 -0.0074482076
-0.018084157 -0.006797129 0.0815485 -0.01368078 -0.0038732341 -0.020115376 -0.013019042 0.06212469
-0.12551472 0.11894025 -0.043442268 0.040528864 -0.024856899 -0.033674043 0.007405334 -0.06873906
0.07105724 -0.074281566 0.056148842 -0.014408577 -0.016251411 0.07037331 -0.112907045 0.07783036
-0.064249836 0.02670348 -0.026518447 -0.025402093 -0.011609416 -0.04566043 0.08202221 -0.081109285
-0.030823413 -0.0061763343 -0.009421736 2.611128e-05 -0.029416412 0.04169727 0.019042373 -0.0012385304
-0.0125747705 -0.0029865147 -0.005361791 -0.0048543215 -0.0044847704 -0.006454824 -0.0028549891 -0.006349578
-0.0039553647 -0.004237022 -0.011590689 -0.018286271 0.027268235 -0.02196301 -0.006478088 -0.0032784608
-0.0017369166 0.031711623 -0.013429473 -0.0153729385 0.009606502 0.004513941 -0.00574557 -0.014865459
-0.0038930248 -0.011841735 0.00340487 -0.01969064 -0.0051189247 -0.0035978213 -0.0062574577 0.004978573
-0.0047617536 0.0006599755 0.008969104 0.00015184112 -0.0043308474 -0.0041767303 -0.020316852 -0.029103471
-0.0027873574 -0.015347619 -0.019671448 -0.003496707 -0.0041231425 -0.025139304 -0.005707449 -0.015624726
0.009765399 -0.0006284398 -0.004286227 -0.0054837563 -0.0053391494 -0.007798202 -0.00024238591 -0.010867952
-0.0072312974 -0.005729935 -0.012141627 -0.005867657 0.009646529 -0.0031755266 -0.0059124427 -0.004624081
-0.0090508405 0.0053772056 -0.044639174 0.008277639 -0.031248137 -0.0085624335 -0.019800128 -0.011215801
-0.0063357856 -0.021009553 0.032178212 -0.04806654 0.00042769834 5.9185302e-05 -0.008648246 0.013883201
-0.02107256 -0.020970194 -0.04331752 0.022534205 -0.014522243 -0.009262297 -0.007864588 -0.030266598
-0.010578148 0.0017547609 -0.011521309 -0.010143588 -0.007766707 -0.009220954 -0.014394929 0.018079605
-0.012517423 -0.0029664864 -0.007775949 -0.0035299887 -0.0036942079 -0.004057707 -0.0039169225 -0.0029669164
-0.0048274095 -0.002763257 -0.0048490684 -0.0073771398 -0.008955674 -0.012035319 0.00999551 -0.019999644
-0.017100425 -0.0041998615 0.0036068128 -0.0030494195 0.003844603 -0.027036365 0.00065101427 0.010794798
-0.008139635 -0.012378297 0.0074195066 -0.056396723 0.008309549 -0.0073354663 -0.008733039 -0.0046539824
-0.003302045 -0.017597359 -0.019914698 0.020155367 -0.012786502 -0.006881691 -0.0065575917 -0.004999214
-0.0056293416 -0.002226114 -0.044468056 -0.00458516 -0.013848524 -0.0049920916 -0.009722995 -0.03422922
-0.013631605 -0.021199329 -0.0071394565 -0.0055930386 -0.0018440527 -0.0037551383 -0.004094111 -0.00499097
-0.0007137659 -0.0042039743 -0.0067101084 -0.0030456972 -0.0066849906 -0.010916428 -0.0034632077 0.017124498
-0.00663914 0.0017977435 -0.003007007 -0.0015270188 0.0067415806 -0.04142601 0.0012956973 -0.0021003438
0.0025813906 -0.004108164 -0.016077464 -0.0067258608 -0.014538349 -0.012909268 -0.010537828 -0.0060740346
-0.002788213 -0.00535519 0.009536334 -0.029731223 -0.0051446725 -0.0009345093 -0.004592025 -0.0034106139
-0.012675237 -0.021178447 -0.025805142 -0.01632513 -0.008525389 -0.016180541 -0.0028301973 -0.008680565
-0.022306573 -0.010083658 -0.017350262 0.0065048793 -0.0026917085 -0.0054358128 -0.0061587524 -0.006219269
-0.0043084547 -0.006087508 -0.0068305 -0.0041781324 -0.0063581257 -0.010377589 -0.0141820805 -0.0014087402

encoder.4.bias f4 [64]
00000000: fabb f0bc fa9d a2bc 0710 8e3c 1038 853c
00000010: cdbd cf3c 685d 593c 2626 953c d400 be3c
00000020: 5a1a c3bc 5311 9b3c 05a7 313c cb69 4fbc
00000030: 17d5 51bc 75e7 ff3c 841b db3b e2ef d63c
00000040: 74c9 9cbc 5ed0 903c 5798 873c 0470 fdbc
00000050: 4e51 27bd 655f bbbc 990f e23c 64af 85bc
00000060: c337 ebbc f2f5 d4bc 022c fd3c b777 8b3c
00000070: c1ec 81bc 5146 60bc 1c56 bc3b c5d2 b93c
00000080: 5ca6 08bd 04cb ae3b 451e 113d 2303 4cbc
00000090: 60ca 1b3d 6904 1c3c b277 a43c 51aa c53c
000000a0: fa78 0f3d aa1f 683c 6712 d03c 0c70 85bc
000000b0: 8af2 c43c 587d dc3c 59b3 903c 2f58 08bd
000000c0: af81 a5bc 9ad7 fa3a 3c6f f23c 5dae f6bc
000000d0: 11a4 a93c 42d1 cb3c 63ba 973c 1514 2b3d
000000e0: a695 e63c 88d9 013c bbaa bf3c 0e84 d0bc
000000f0: 067e 11bd b24e 11bd 1331 82bc 0fcd 093d
-0.02938651 -0.01985072 0.017341627 0.016262084 0.025359059 0.013266899 0.018206667 0.023193754
-0.023816276 0.01892916 0.010843043 -0.0126595 -0.012807152 0.031238297 0.0066866297 0.026237432
-0.01913903 0.017677482 0.016552133 -0.030937202 -0.040849023 -0.022872636 0.027595328 -0.016318984
-0.028713113 -0.025996182 0.030904774 0.017024858 -0.015859963 -0.01368864 0.0057475697 0.02268351
-0.033361778 0.00533426 0.035429258 -0.01245192 0.038034797 0.009522536 0.020076606 0.024129065
0.03502748 0.014167706 0.0253994 -0.01628878 0.024041433 0.026915237 0.017663645 -0.033287223
-0.02020344 0.0019137741 0.029594056 -0.03011244 0.020708116 0.024880055 0.018521493 0.0417672
0.02814753 0.007925399 0.02339684 -0.025453594 -0.035520576 -0.03547544 -0.015892541 0.033642825

decoder.0.weight f4 [64, 32, 7, 7]
00000000: f685 80ba 9434 6c3a a874 f43b 7f77 6fbb
00000010: 5f95 52bc b3f6 00bb 380c 0abb fb45 1c3a
00000020: b6ed 63bc 9435 dd3b 5278 503b cf20 6d3c
00000030: c5ad 44bd b6fa 38bd 0c60 ee3a ec12 09bc
00000040: 26bc 8a3d b9a0 33bc 9202 bcbb d401 863d
00000050: 3985 24bd fe96 b1bb 5e85 07bc 24ea 21bb
00000060: 5394 23ba e589 ba3c 7df1 e4bc 0f87 18bd
00000070: 628d 033b 7fdf bcbc 4c17 3c3d c5af ff3c
00000080: 6b77 44bd f1f2 8fba cbbf 22bb ac7a 0dba
00000090: b8a1 cd39 435f 58bd 27bd 3ebd 9ee9 033d
000000a0: a8e1 d6bc dedb 5fbc ec96 06b9 4202 1e3c
000000b0: e555 02bd 7e3e 273a 6fa6 c53b e45d 3d3c
000000c0: 95d4 e2bc 3e3b 60b9 179b 473b 24c4 803c
000000d0: 03c4 403b fb10 c0bc c497 b13b e5a7 fcba
000000e0: 0564 a0ba f9d9 283a 896b 403b 47c4 49bd
000000f0: 932c c13b 6327 75bd 67f1 b43c 06ce ffbb
00000100: ca65 073c 9639 593d be4c eebc 8908 68ba
00000110: 1c05 00be 222d 943c 685e 8e3b 4b42 3b3d
00000120: 7983 adbc 3df6 2d3c d672 0d3d a727 d6bd
00000130: 53f5 4a3c e2e6 fcba f343 d8bd 35c1 dabc
00000140: 0cb3 cc3a 8ce1 1ebd a9bd b8bd 5ca0 883c
00000150: 5d60 3d3c b21b 023a f7b0 143a bdc3 393a
00000160: 02aa bf3d a003 323d 819b c3bb dcb8 44bb
00000170: 1aad cabc f9be 863d fdd3 46bd 2c84 c2bc
00000180: 1bc9 e7bc 1a23 8f3c d473 8081 da4a a939
00000190: 7abc 22ba db1a f83a 372d 8a01 eae4 30ba
000001a0: 9d31 6b3b 3ec7 6637 be82 f5bb 880b e9bc
000001b0: ca72 bdbd 949f 7b3c c2ee 423d 6b46 df88
000001c0: be43 17aa dab5 0537 456f ef36 73d0 d93b
000001d0: f628 3dbd e761 033d 8648 853d 197b b1bb
000001e0: 3e42 53bd f448 1c3d 0faa 103d 3874 a837
000001f0: 4bed 563d da4b 8d3d c386 9fba 8fe0 8781
00000200: df24 a53d a532 76bd 057f 8381 7e94 e89c
00000210: 1d4e 353d 4854 2501 07b9 5833 96c1 40bc
00000220: 11dc 00bd c008 a5bc 8a5e 20bb 7c86 debc
00000230: b7f4 0f3b 5fc9 7c25 deef ca16 0f8f 0fbd
00000240: 5fd6 dcbc 5923 b03c 7f0e 00bc 9f51 7eb9
00000250: 71b3 7bbb 0ddc edbb 883b 37bc 60a4 0c3b
00000260: a20e ce3b cc64 773b 4804 adb8 c450 7a39
00000270: a635 293d 5c85 b0bc b1e8 aa3c a240 033c
00000280: dae2 2bbd 751e cdbb 40bc c1bc 99e6 483d
00000290: 8178 40bd 8bad 433d 863b d7bd e88c 613d
000002a0: 7115 8e3c 8988 8ebc a443 84bc 6078 29bb
000002b0: a7ad 773c 5041 a4bd 6de9 923c 2435 563c
000002c0: 7b8e b0bd 9299 d23c 76cf adbd 1777 89bb
000002d0: af44 653a fb9b 63bc 3fb0 bf3b 6d07 fabc
000002e0: 418e 083d f1a6 053d 6f05 3f3c e798 dd3b
000002f0: 81d4 793c edfa b9ba ebaa 2c3a c1e2 d63c
00000300: 4bd7 05bc a5e4 dbbb 018b 053d 6d9d 4bbc
00000310: e563 21b9 f6d6 3cb9 b949 a03b acf6 8e3c
00000320: 2ec5 92bc e22b caba c762 4cbb 7649 aeb7
00000330: 308e 4cbc 9cc8 a13a 4223 f13b 0582 c8ba
00000340: af9d 0cbd 347a 9e3b 82ad ccb9 d8dc 02bd
00000350: 10af 023d d4c2 93bc a05d 803c b674 a2bc
00000360: 52f1 a1bc 8e96 49bb 5476 193a 86e4 94bc
00000370: 0943 e33b aeb7 ce3c 0f46 0bbc ccbe ffbb
00000380: 98d1 29bb 0cc5 11bd 3026 1d3c 407e 08ba
00000390: 8562 903b aac1 abbc c879 08bb 667c 52bc
000003a0: 1be1 a1bc 3efc 063d 4df5 683c d8b7 5d3c
000003b0: c1d9 e43c ce22 0dbc 8e61 b7ba 772e 983b
000003c0: 53c4 9bb9 5a12 91bc e7fb d1bc df60 fa3a
000003d0: 2944 5ebc 52c0 a381 fc99 9d83 f5c6 b4bc
000003e0: c0d8 bd89 e99b 883c ca12 433c 3a6d 98bb
000003f0: 72c9 8184 6b9d 33bd 7f53 21bc cba5 b03b
-0.0009805548 0.00090105203 0.0074601956 -0.003653973 -0.012852996 -0.0019678294 -0.0021064412 0.00059613556
-0.013911655 0.006750772 0.0031809998 0.014473154 -0.048017282 -0.04516097 0.0018186583 -0.008366328
0.06774168 -0.010963612 -0.005737611 0.065433174 -0.040166114 -0.005419611 -0.008271543 -0.002470621
-0.00062400586 0.022770831 -0.027947182 -0.037238177 0.0020073284 -0.02305579 0.045920655 0.031211743
-0.04796545 -0.0010982436 -0.0024833556 -0.00053970027 0.00039221137 -0.052825224 -0.04656711 0.032205217
-0.026230648 -0.01366326 -0.00012835459 0.009644093 -0.031820197 0.00063798565 0.0060318033 0.01155803
-0.027689258 -0.00021384374 0.003045743 0.015718527 0.0029413707 -0.023445597 0.005419703 -0.0019276111
-0.0012236839 0.0006441172 0.002936097 -0.04925945 0.0058952062 -0.059852015 0.022087766 -0.0078065423
0.0082640145 0.053033434 -0.029089328 -0.00088513695 -0.12501949 0.018087927 0.00434475 0.04571752
-0.021180855 0.01061779 0.034533344 -0.10456782 0.012387591 -0.0019294883 -0.10559835 -0.026703456
0.0015617325 -0.038789317 -0.0902055 0.016678028 0.011558619 0.00049632334 0.0005672122 0.0007086357
0.09358598 0.04346049 -0.0059694652 -0.0030017411 -0.024740744 0.06579394 -0.04854201 -0.023744665
-0.028294137 0.017472792 -4.718598e-38 0.0003228996 -0.0006207895 0.0018928902 5.0758074e-38 -0.0006747978
0.0035887726 1.3755458e-05 -0.0074923923 -0.028447881 -0.0925041 0.015357871 0.04759098 -1.34378795e-33
-1.3434997e-13 7.969758e-06 7.1357085e-06 0.0066471635 -0.04618164 0.03207579 0.065079734 -0.0054162857
-0.051576845 0.03815551 0.03531843 2.008128e-05 0.052472394 0.06899233 -0.00121709 -4.9913394e-38
0.08063673 -0.060106892 -4.8304064e-38 -1.5390856e-21 0.044263948 3.0366183e-38 5.04597e-08 -0.0117649045
-0.03145987 -0.020145774 -0.0024470412 -0.027163737 0.002196593 2.1925743e-16 3.2786238e-25 -0.03504854
-0.026957689 0.02150123 -0.007815956 -0.00024253734 -0.0038406516 -0.007258898 -0.011183627 0.002146028
0.0062883655 0.0037749289 -8.25008e-05 0.00023871945 0.04131093 -0.021547966 0.020862909 0.008011015
-0.04196439 -0.0062597343 -0.023649335 0.04904804 -0.04698992 0.047772925 -0.105094 0.05506602
0.017344208 -0.01739909 -0.016145535 -0.0025859103 0.015117086 -0.0802027 0.017933572 0.013074193
-0.08620926 0.025707994 -0.08486836 -0.004195105 0.00087458914 -0.013892169 0.0058498676 -0.030521119
0.03333879 0.03262991 0.01165901 0.006762612 0.015248419 -0.0014189162 0.0006586748 0.026231172
-0.008169006 -0.006710606 0.032603268 -0.01242767 -0.0001539137 -0.00018009156 0.004891601 0.017451607
-0.017916288 -0.0015424455 -0.0031186806 -2.0776624e-05 -0.012485072 0.0012343111 0.0073589394 -0.0015297538
-0.034330066 0.004836345 -0.00039039186 -0.031948894 0.031905234 -0.018037237 0.015669644 -0.019831043
-0.01976839 -0.0030759904 0.0005854119 -0.018175375 0.0069354814 0.02523407 -0.00850059 -0.007804727
-0.002591228 -0.03558831 0.009591624 -0.0005206801 0.0044062757 -0.02096637 -0.002082454 -0.012847042
-0.019760659 0.0329554 0.0142186405 0.013532601 0.027935864 -0.008614255 -0.0013990866 0.004644211
-0.00029710177 -0.017708946 -0.025632812 0.0019102356 -0.013566055 -6.015271e-38 -9.262984e-37 -0.022067526
-4.5703926e-33 0.016675906 0.011906335 -0.0046516927 -3.0512753e-36 -0.043851297 -0.009846567 0.005390858

decoder.0.bias f4 [32]
00000000: 1314 243d e95d 453d a863 acbc 7fce 1f3d
00000010: 13be 2b3d ca0a 08bd 48ed 023d 8c5c 4a3d
00000020: 6116 4d3c b1ff f73c 9827 713d a065 373d
00000030: 4392 1b3d 2055 f13c ffe7 cc3c c544 233c
00000040: 1f98 153b 32ed c03c b6d2 353d 5e5c a13c
00000050: a2e2 8e3c 04c2 2e3d 92b8 d83c b18a 393c
00000060: 91cb 843c dc22 033d c44d 2fbb bb15 413c
00000070: fa38 4c3c 8698 153d d066 7bbb 934c 203d
0.040058207 0.048185263 -0.021043614 0.03901529 0.041929316 -0.033213414 0.03196457 0.049404666
0.012517543 0.03027329 0.05887565 0.04477465 0.037981283 0.029459536 0.025012968 0.009965126
0.0022826267 0.023550604 0.044390403 0.019697364 0.017442051 0.042665496 0.026455197 0.0113245705
0.01621035 0.032015666 -0.0026749233 0.011784966 0.012464756 0.03652241 -0.0038360842 0.039135527

decoder.2.weight f4 [32, 16, 3, 3]
00000000: e957 af3d 11ee c93d 5e03 b3bc 4a9a 063c
00000010: 54e2 8e3b f701 88bd 2e2a fb3d e113 a6bd
00000020: 6eb6 983c 4a56 6e3b 3277 f1bc 782b 28bd
00000030: d07e d83c b209 18bd 016c ce3c c49c 093d
00000040: 3b42 a2bb 7fe6 493d 30b9 a63d c253 643e
00000050: 5080 b63d 9f2f 513e 3d37 dabb 8df2 7dbd
00000060: ce67 bc3d 62f9 12bd 55f0 13be 66a2 f63c
00000070: 442e a6bd 2b67 943c 3f0e 41bc a8b0 b1bd
00000080: 5d91 ad3d 8380 8539 672c 47ba be27 a43d
00000090: 37b4 a4bc 9175 81bd 90d0 943d bba1 a5bd
000000a0: 237d 3abc 0cf6 b43c cd36 81bd 4660 443d
000000b0: 2d26 d1bb fdee 2cbc 6539 243c 25cc 68bc
000000c0: 435a a0bd d0fa 053d e173 a43d 61c6 e73c
000000d0: f6c8 833d 2590 1f3d 00e7 8fbc 46f1 323b
000000e0: d2c5 d43d ce94 84bd 77c5 8e3c ffeb 2e3d
000000f0: fc54 d93c 5066 943d fe23 26be 3db2 8e3d
00000100: 1936 02bd 4dd0 54bd 1057 413d cf3c a3bd
00000110: 29ff 5b3b dfc1 4d3c 9f94 c13d c19a 8c3c
00000120: 76cd 3fbd b278 f7bb 4928 90bc 1166 f2bc
00000130: 11b3 373e a0a4 dd3c c35a 013e 8952 52bb
00000140: 1986 a8bc eaae 223d 1c05 68bb 9662 0fbb
00000150: b00c 5cbc 4d8e 9bbd 47f3 353d 073e 5abd
00000160: 4571 483c f11a 9d3c a51d e8bc 027b 443d
00000170: 1b77 33bd 6759 1fbd 94d7 b63c 64b7 71bd
00000180: c74a 2b3e f8b8 243c 9f27 88bd 9f06 6e3d
00000190: 0f25 80bd 8634 06bb 4a4e ab3d 4382 ab3c
000001a0: 7941 0f3c fb2b 05be c318 1cbd 81de ec3d
000001b0: f1a7 6bbc 5f8c 7abc 6301 40bc 5fa1 753b
000001c0: 6fb4 2d3d ce9b e63c a991 84bc 32c6 88bd
000001d0: 1853 9cbb aa8f c7bd 2225 0bbe 9762 4fbd
000001e0: 6aca cebd 68d9 1f3b 44dc b23d ccea 073d
000001f0: c5a3 b63d 119f 5a3c 0a44 d63c 0014 a5b2
00000200: 86b1 9bbc e06e 5ebc 9cf9 4ebd bf38 a03c
00000210: f2b3 543d de93 633d ebb7 763c f3b3 ee3c
00000220: 053c f73c 5837 423d 867b 073d b131 973d
00000230: 9cc4 7b3d 648d 02bd d67e a93d 7255 b03d
00000240: b29e da3d 60fb 51bd 6566 533d f0dd ef3c
00000250: 84ff 4abe b480 25bd 8dc4 83bb 445a 8cbd
00000260: aaa8 a3bd 7e01 e73c dd32 0d3b 0c30 2a3d
00000270: cc5e 4dbd 4782 673d 2198 cf3d 2230 513c
00000280: 503c 87bd b5e5 b03d 7a92 08bb d3e8 5a3d
00000290: 15ef 0cbb 953f 0d3e cd62 19bd 1ead 86bd
000002a0: 495b 3f3d 5e8f ffbd e04a 80bd a06e 33bd
000002b0: b4b0 bdbc 1b0d 5b3d a44b d6bd 7510 443e
000002c0: 5e67 c63d ded8 aebd 5515 433e 68dd 0f3e
000002d0: 0ba6 87bd 46a4 563d 9b97 533d 5e83 2cbd
000002e0: 055a 303e a221 123e baee 17bc ed54 b53d
000002f0: c554 053e 0d35 06bc 1c32 db3d 1f1d 8b3d
00000300: b379 9c3c 4289 123e 3977 883e 4e39 1b3d
00000310: f508 1f3e 1170 053e df02 603d 0768 db3d
00000320: c167 9c3c 3e6b c0bd a52c 743c a479 ea3c
00000330: cc3c 713d 4a94 353c e37e 3bbe 4622 0b3d
00000340: f851 b53d 1396 643d 0dfb b83c 7afe d93d
00000350: 1dd8 f83d 5efc bb3d c090 bf3d fcc2 b73d
00000360: f428 943d a85d dbbb dac0 09bd a160 ce3d
00000370: c15e 683c d7b4 1abd 8fde 663c e069 f8bb
00000380: 3c3c 97bd ea36 bebc 9b27 35bd 9733 1b3e
00000390: a080 1dbd 8092 813d ebfb 6e3d 3967 a13c
000003a0: 786b 223d 2628 e13d 398d 973d fe72 e53c
000003b0: 8a28 d43c b82e d23d 349d 4b3c 117c 99bd
000003c0: 9c1c d13d e013 a2bd abfb f7bd 4f34 2c3d
000003d0: 36c3 66bc 044a 9bbc b889 b8bd c6d3 c83c
000003e0: b2c2 9a3d 7e1e 98bd eece 263e d252 4d3e
000003f0: 5885 f9bc 2632 973b c5c0 bebd 1bd5 22bd
0.085616894 0.09859861 -0.021852192 0.008215496 0.0043604765 -0.06641 0.122639045 -0.0810926
0.018641677 0.003636735 -0.029475782 -0.04105708 0.026427656 -0.03711862 0.025197985 0.03359677
-0.004951743 0.049292084 0.081407905 0.22297576 0.089111924 0.20428322 -0.006659417 -0.061998893
0.09199487 -0.03588236 -0.14447148 0.030106734 -0.08114293 0.0181156 -0.011783182 -0.08676273
0.084749915 0.00025463486 -0.0007597864 0.08015393 -0.020105464 -0.06321252 0.07266343 -0.08087488
-0.011382374 0.02208998 -0.063092805 0.047943376 -0.0063827247 -0.010555026 0.01002345 -0.014208828
-0.07829716 0.032709897 0.08029915 0.028292837 0.06434815 0.038955826 -0.017566204 0.0027304455
0.10389294 -0.06473695 0.017428143 0.042705532 0.026529782 0.07246077 -0.16224667 0.0696759
-0.031789873 -0.051956464 0.04720217 -0.07970583 0.0033568835 0.0125584295 0.09452175 0.017163636
-0.046826802 -0.00755223 -0.017597334 -0.029589685 0.17939402 0.027056038 0.12632279 -0.0032092652
-0.020571755 0.039717592 -0.0035403436 -0.002187883 -0.013430759 -0.07595501 0.04442146 -0.05328181
0.012234037 0.019177886 -0.028334448 0.047968872 -0.04381476 -0.03890362 0.022319593 -0.059012786
0.16727744 0.010053866 -0.06648182 0.058111783 -0.06257068 -0.0020478084 0.08364542 0.020936137
0.008743637 -0.13005058 -0.038109552 0.11565877 -0.014383302 -0.015292256 -0.011719081 0.0037480218
0.042408403 0.028150465 -0.016182737 -0.06678428 -0.0047706477 -0.097441986 -0.13588384 -0.050631132
-0.10097201 0.0024391059 0.087334186 0.033182904 0.08917955 0.013343588 0.02615549 -1.9217623e-08
-0.019005548 -0.013576239 -0.050531015 0.019558309 0.05192942 0.05556094 0.015058498 0.02913854
0.030179987 0.04741606 0.033076786 0.07382525 0.0614668 -0.03187312 0.08276145 0.086100474
0.106748 -0.05126512 0.051611323 0.029280633 -0.19824034 -0.040405944 -0.0040212334 -0.06853154
-0.079911545 0.028198954 0.002154521 0.041549727 -0.050139233 0.056520727 0.10136438 0.012767823
-0.066033006 0.08637563 -0.002083926 0.053444695 -0.0021504809 0.13793786 -0.03744774 -0.06575988
0.046717916 -0.12478517 -0.06264281 -0.043806672 -0.023155548 0.053479295 -0.10463646 0.19146903
0.096876845 -0.08537458 0.19051106 0.14049304 -0.06623467 0.052402757 0.051658254 -0.04211747
0.1722184 0.14270642 -0.009273225 0.08854089 0.13020618 -0.008191359 0.10702917 0.06792664
0.019101 0.14310172 0.2665346 0.037896447 0.1553076 0.13031031 0.054690238 0.10713201
0.019092442 -0.09395455 0.014903222 0.028622456 0.05889587 0.011082718 -0.18310122 0.033968233
0.08853525 0.055807184 0.022580648 0.10644241 0.12150595 0.091789946 0.09353781 0.08972737
0.07234374 -0.0066945143 -0.033631183 0.10077024 0.014182747 -0.03777012 0.014091148 -0.0075809807
-0.07384536 -0.023219544 -0.044227224 0.15156399 -0.038452744 0.06326771 0.058345716 0.01970254
0.03965327 0.10993986 0.07399983 0.028008934 0.025898237 0.10262817 0.012427617 -0.07494367
0.10210535 -0.07913947 -0.12108549 0.042042073 -0.014084628 -0.018956192 -0.09010643 0.024515044
0.075566664 -0.07427691 0.16289875 0.20051125 -0.030459091 0.0046141325 -0.093141116 -0.039754014

decoder.2.bias f4 [16]
00000000: 25d5 87bc 4589 613c 4cd5 123c cfeb 573c
00000010: 5b8b 023d a462 64bb 1ef9 9c3d 53f9 c93c
00000020: 40e1 763d ff7c 853c d1fd 29bd cdb7 973d
00000030: 89a1 b03c edf1 9c3b 8ae2 77bc c767 18bd
-0.016581127 0.013765638 0.008961987 0.01317878 0.03187118 -0.0034848833 0.07664703 0.02465502
0.06027341 0.016294954 -0.041501824 0.07408104 0.021561401 0.004789582 -0.015129695 -0.037208345

decoder.4.weight f4 [16, 1, 3, 3]
00000000: 635f a6be 902e 873c 7513 8dbc 04bb 1cbe
00000010: 8da0 bf3e c57e 3a3e d0cd debd f2fe bd3e
00000020: 498f 44bd e2a1 8bbe e65e a6be 5073 7dbe
00000030: 21c4 5e3e 9f9c e43d ad6d 6dbd 8a89 e8bd
00000040: 0db5 7bbe 3d07 b93d e2e7 a33d 1856 583e
00000050: fd5e 683e a865 823e e38d 0d3f c276 ea3e
00000060: ef2b 943e 585e d03e 860f a03e 0625 52be
00000070: 11ea 483d 5325 9abe a0cd 9ebe 8f4b 5cbe
00000080: 99ea 70be a84d 1ebe 5c9d 56be 6e41 803d
00000090: 85eb a2be c176 8ebe 9063 463e ed7f b5be
000000a0: 69b1 6cbe 09cf aabe 0976 00be 69b7 abbd
000000b0: 3800 a7be a1ba 383e d096 2abe 2469 05be
000000c0: d9b0 e1bd 60fb 85be 428b 42bc d942 c5be
000000d0: 4904 1cbe d6b3 d6bd 29a8 2c3e ac69 12bd
000000e0: cf34 a4be 587c c8bd 1165 07be cf48 83be
000000f0: 3796 b33d 85b6 86be a895 0b3d ae80 47be
00000100: 3460 bbbe 2872 103e 2212 0abe 27d1 c5be
00000110: 1298 623e 4832 993d e7ab 5fbe 0c88 a23d
00000120: f514 5b3e 3217 a23d 4d22 36be 14b0 983e
00000130: f5f4 813e b27e 8fbd dec5 d33d 2955 8ebe
00000140: 8fb8 403e 832d be3d 5a89 15bc bf35 3dbd
00000150: 3162 97be 9874 04bf 2ee6 9ebe 7dad f33d
00000160: 5d39 ba3d de68 0e3e a9e6 713d fe6c be3e
00000170: 035b db3d 7aaa e93e dabf 7e3e fd83 f03c
00000180: 3216 a73e f037 6e3e e4a0 cdbd 17ec d7be
00000190: c8b2 dfbe 21e1 f3bd 5317 adbe 549c 84be
000001a0: 329a f13d aa4e f73d 53fc 883d f33f b13d
000001b0: 6b9e 7ebe e20c 283e 19a6 be3d d076 8bbe
000001c0: 471b 523e 1b0c 763e 8b96 833d 5cc7 a1be
000001d0: 8109 bdbe 07f1 4dbc fdd8 89bd 1557 21be
000001e0: 4482 0a3d f5b7 a7be 91d1 bfbe 8c9e cc3c
000001f0: fc7b b7be 8ce0 bbbe efeb 0c3e 51d1 b1bd
00000200: 12c7 71be a12c 3c3d 2de2 893e ac7d 01be
00000210: 9b9b 0fbe 2fc8 88be 769c 003e 0302 f93d
00000220: bb9a 5f3e b07e 36be 6fd3 cbbd 6b9d 86be
00000230: 2785 97be 8cd1 71be 4562 b5bd ec46 04be
-0.3249465 0.016501695 -0.017221192 -0.15305716 0.37427178 0.18212421 -0.10879099 0.3710857
-0.04798821 -0.27271944 -0.32494277 -0.2475102 0.21754505 0.111626856 -0.057965923 -0.113543585
-0.24580784 0.09034584 0.080032125 0.21126592 0.22692485 0.25468183 0.55294627 0.4579373
0.2893977 0.4069698 0.31261843 -0.20521936 0.049051348 -0.301066 -0.31016254 -0.21513198
-0.23526992 -0.15459311 -0.20958465 0.0626248 -0.31820312 -0.27824977 0.19373918 -0.35449162
-0.23114552 -0.3336108 -0.12545027 -0.08384592 -0.32617354 0.18039943 -0.16659093 -0.13028389
-0.11020059 -0.26168346 -0.011874022 -0.38527563 -0.1523601 -0.1048352 0.16861023 -0.035745308
-0.3207154 -0.09789342 -0.13222148 -0.25641486 0.087688856 -0.26311126 0.03407827 -0.19482681
-0.36596835 0.14106047 -0.1348348 -0.38636133 0.22128323 0.074802935 -0.2184292 0.07936105
0.21394713 0.079145804 -0.17786522 0.29821837 0.253822 -0.07006587 0.103404745 -0.27799347
0.18820404 0.092860244 -0.009126985 -0.046193834 -0.29567102 -0.5174041 -0.31034988 0.11898325
0.090929724 0.13907191 0.059057865 0.3719253 0.107107185 0.45637876 0.24877873 0.029359812
0.3263412 0.23263526 -0.10040453 -0.4217231 -0.43691087 -0.11908174 -0.33806857 -0.2590052
0.117969885 0.12075551 0.06688752 0.086547755 -0.24865119 0.16411164 0.09309024 -0.27239084
0.20518218 0.24028055 0.06425198 -0.31597412 -0.36921313 -0.012569672 -0.0673084 -0.15755875
0.033815637 -0.32757536 -0.37464574 0.024977945 -0.3583678 -0.36694753 0.13761877 -0.08682502
-0.23611096 0.045941 0.2693037 -0.12645596 -0.14024203 -0.26715228 0.12559685 0.12158587
0.21836369 -0.17821765 -0.09952437 -0.26291975 -0.29593775 -0.23615092 -0.08856634 -0.1291768
